runs/ttnn/section_0.pt (torch, 3565 bytes, 5 tensors)

cl1.weight f4 [2, 1, 2]
00000000: 71b4 15bf f62b 2a3f 0936 23bf 96c7 8a3e
-0.58478457 0.6647333 -0.63754326 0.27105397

cl1.bias f4 [2]
00000000: 119f 7bbe b2ce 33bf
-0.24572398 -0.70237267

cl2.weight f4 [4, 2, 2]
00000000: 694d acbd bd40 383e b9ee f93c 8250 8f3e
00000010: c86c 20be 0e70 de3e 6aac f63d 5fe7 ee3e
00000020: 0a08 5fbc c38d f3be 3247 803d 6026 a9be
00000030: 1854 a7bd f2ff a63e 2fac 213d 7f94 e53e
-0.08413202 0.17993446 0.03050934 0.2799111 -0.15666497 0.43444866 0.12044604 0.46660897
-0.0136127565 -0.47569093 0.062635794 -0.3303709 -0.081703365 0.32617146 0.039470848 0.44839856

cl2.bias f4 [4]
00000000: e068 8a3e 7f0c cdbd 7d2a 053e 1467 f73d
0.27033138 -0.10012149 0.13004489 0.120802075

dl.weight f4 [1, 56]
00000000: 7d22 a6bd 698b 72bd d081 05be 261d a83d
00000010: 3b79 b83d e854 fe3c a64f f43d 14e4 78bd
00000020: ed31 b3bc 8576 a23d 21ef c13d 2b84 973d
00000030: 9422 13bd c301 e2bd 410a 2bbd 25b0 febc
00000040: 477f db3c 0985 dbbd 8e67 bbbd 5e25 4cbd
00000050: 3696 23bd 239f 93bd 7df7 fcbd 05d3 e73d
00000060: b6d5 d43c 1625 fe3b 5756 6eba 822d 433d
00000070: f99e 063d a2a4 d8bb 2305 25bd 5bc8 47bb
00000080: 6359 933d 40a7 79bc afe0 6e3c c4a5 c4bb
00000090: 3fe8 05be 1163 28bd 5179 e93d 3b49 af3d
000000a0: aadd d03d f4be 873d eeb2 50bd 6f5d f9bd
000000b0: 525c b6bd b978 863d bfa2 54bd b998 c1bd
000000c0: 5372 a3bd 7567 9e3d 16f2 ddbd 863b ddbd
000000d0: a59d efbc d09f 8abd 005b 933d 407b fdbd
-0.08112047 -0.059214983 -0.13037801 0.082086846 0.09007498 0.031046346 0.11929254 -0.060764387
-0.021874392 0.07932762 0.09469438 0.07398256 -0.03592165 -0.11035492 -0.041757826 -0.031089852
0.026794089 -0.10718734 -0.09150611 -0.049840324 -0.039938174 -0.07208087 -0.12351892 0.11319546
0.025980812 0.007755886 -0.0009091845 0.04765082 0.032866452 -0.0066114226 -0.040288102 -0.0030484411
0.071947835 -0.015237629 0.014579936 -0.006001206 -0.13076876 -0.041110102 0.114000924 0.085588895
0.10198529 0.06628218 -0.05095189 -0.12176024 -0.089043275 0.06565995 -0.05191302 -0.09452958
-0.0798079 0.077345766 -0.1083719 -0.10802369 -0.029249975 -0.06768763 0.07195091 -0.12377024
