runs/ttnn/section_0.pt (torch, 3565 bytes, 5 tensors)

cl1.weight f4 [2, 1, 2]
000000 f0 1f 03 bf b7 f8 16 bf d1 c0 0a 3f b6 46 57 3e
       -0.5122061 -0.5897326 0.54200464 0.21023068

cl1.bias f4 [2]
000000 06 85 18 3f 93 b6 75 be
       0.5957798 -0.23995428

cl2.weight f4 [4, 2, 2]
000000 d8 50 50 3e be c6 c3 3e 73 88 9d 3e 7d 61 f5 3e
       0.2034334 0.38237566 0.30768165 0.4792594
000010 8f d2 be be a6 25 88 be 94 0a 85 be c6 24 d6 3e
       -0.37270018 -0.26591223 -0.25984633 0.4182493
000020 7a cf c4 3e cc 20 7b 3d 55 19 5e 3c bb 1e 3f be
       0.38439542 0.061310574 0.013555844 -0.18664066
000030 0a 68 c6 be 68 36 b5 be ec 03 2b 3e e7 bf eb 3b
       -0.3875125 -0.3539307 0.16700715 0.0071945074

cl2.bias f4 [4]
000000 8e 6a 80 3d 13 8a 9d be c9 13 ff 3d bc 35 4c be
       0.06270324 -0.30769405 0.124549456 -0.19942373

dl.weight f4 [1, 56]
000000 1a 76 b8 3d f0 db cb bd 7c 17 8b 3b 85 d3 bb bd
       0.09006901 -0.09954059 0.004244743 -0.091712035
000010 d6 6f 95 3d 85 bb f9 bd d0 36 c5 bd b7 12 c8 bd
       0.07296722 -0.1219397 -0.09629595 -0.097691946
000020 d5 7c 0b 3e ba 4e 8b bd 1d 80 94 bd 9e 39 ff bd
       0.13621838 -0.06802125 -0.07250998 -0.124621615
000030 3a b4 c6 3d 85 b1 ba bd 25 60 d8 bd da a0 03 be
       0.09702344 -0.091158904 -0.10565213 -0.12854329
000040 4c 26 d8 bc 08 ea cf bd 21 4d 7b bb b5 b1 17 3d
       -0.026385449 -0.1015206 -0.0038345533 0.03703471
000050 c4 7b 03 3e 18 b8 fd bd 66 ff 50 bc 7b 88 d3 3d
       0.12840182 -0.12388629 -0.012756204 0.10328766
000060 2d 04 65 3d 88 5d 8e 3d 6a 7e fc 3d a1 41 24 bd
       0.055912185 0.069514334 0.12328799 -0.04010165
000070 33 18 2d bd af ec fc 3d c9 c2 25 3d 3b ff 97 3b
       -0.042259406 0.12349831 0.040468965 0.00463858
000080 3d 2b 9d bc e2 83 d6 3d c0 91 26 bd cb fc ca 3b
       -0.019185657 0.104743734 -0.04066634 0.006194686
000090 6f 63 ef bd fc 9d f0 3b 99 c0 d8 3c 3b e1 06 bc
       -0.11688887 0.007343052 0.026459025 -0.00823241
0000a0 f9 54 e6 3d 5b 8d a9 3d d4 2b ce 3d dd 99 90 3d
       0.11246676 0.082789145 0.10066953 0.07060597
0000b0 2e 96 52 bc ef 9b c2 bc b5 3f a5 bd 17 19 b6 3c
       -0.012853188 -0.023755996 -0.08068792 0.02222876
0000c0 6c 4b be bd 9f c8 ab bd 49 68 95 3d 8c cd dd 3d
       -0.09291729 -0.08387875 0.072952814 0.108302206
0000d0 6f 3e a3 bb aa 41 80 3d 43 cd e7 bd 57 0b 00 be
       -0.004981808 0.062625244 -0.113184474 -0.12504326
